…
ChebyGINLayer torch.Size([32, 128]) tensor([0.5947, 0.5870, 0.5503, 0.5657, 0.5523, 0.5770, 0.5951, 0.5771, 0.5734,
        0.5563], grad_fn=<SliceBackward>)
ChebyGINLayer torch.Size([32, 64]) tensor([0.5417, 0.5536, 0.5798, 0.5972, 0.5887, 0.5005, 0.6149, 0.5054, 0.6006,
        0.5292], grad_fn=<SliceBackward>)
ChebyGINLayer torch.Size([1, 64]) tensor([0.5138], grad_fn=<SliceBackward>)
ChebyGINLayer torch.Size([64, 448]) tensor([0.5767, 0.5746, 0.5792, 0.5914, 0.5761, 0.5746, 0.5915, 0.5659, 0.5841,
        0.5816], grad_fn=<SliceBackward>)
ChebyGIN(
  (graph_layers): Sequential(
    (0): ChebyGINLayer(in_features=14, out_features=64, K=7, n_hidden=64, aggregation=sum)
    fc=Sequential(
      (0): Linear(in_features=98, out_features=64, bias=True)
      (1): ReLU(inplace)
      (2): Linear(in_features=64, out_features=64, bias=True)
      (3): ReLU(inplace)
    )
    (1): AttentionPooling(pool_type=['attn', 'sup', 'threshold', '0.001'], pool_arch=['gnn', 'curr'], topk=False, kl_weight=100.0, proj=ChebyGIN(
      (graph_layers): Sequential(
        (0): ChebyGINLayer(in_features=64, out_features=32, K=2, n_hidden=0, aggregation=sum)
        fc=Sequential(
          (0): Linear(in_features=128, out_features=32, bias=True)
          (1): ReLU(inplace)
        )
        (1): ChebyGINLayer(in_features=32, out_features=32, K=2, n_hidden=0, aggregation=sum)
        fc=Sequential(
          (0): Linear(in_features=64, out_features=32, bias=True)
          (1): ReLU(inplace)
        )
        (2): ChebyGINLayer(in_features=32, out_features=1, K=2, n_hidden=0, aggregation=sum)
        fc=Sequential(
          (0): Linear(in_features=64, out_features=1, bias=True)
        )
      )
    ))
    (2): ChebyGINLayer(in_features=64, out_features=64, K=7, n_hidden=64, aggregation=sum)
    fc=Sequential(
      (0): Linear(in_features=448, out_features=64, bias=True)
      (1): ReLU(inplace)
      (2): Linear(in_features=64, out_features=64, bias=True)
      (3): ReLU(inplace)
    )
    (3): AttentionPooling(pool_type=['attn', 'sup', 'threshold', '0.001'], pool_arch=['gnn', 'curr'], topk=False, kl_weight=100.0, proj=ChebyGIN(
      (graph_layers): Sequential(
        (0): ChebyGINLayer(in_features=64, out_features=32, K=2, n_hidden=0, aggregation=sum)
        fc=Sequential(
          (0): Linear(in_features=128, out_features=32, bias=True)
          (1): ReLU(inplace)
        )
        (1): ChebyGINLayer(in_features=32, out_features=32, K=2, n_hidden=0, aggregation=sum)
        fc=Sequential(
          (0): Linear(in_features=64, out_features=32, bias=True)
          (1): ReLU(inplace)
        )
        (2): ChebyGINLayer(in_features=32, out_features=1, K=2, n_hidden=0, aggregation=sum)
        fc=Sequential(
          (0): Linear(in_features=64, out_features=1, bias=True)
        )
      )
    ))
    (4): ChebyGINLayer(in_features=64, out_features=64, K=7, n_hidden=64, aggregation=sum)
    fc=Sequential(
      (0): Linear(in_features=448, out_features=64, bias=True)
      (1): ReLU(inplace)
      (2): Linear(in_features=64, out_features=64, bias=True)
      (3): ReLU(inplace)
    )
    (5): GraphReadout(max)
  )
  (fc): Sequential(
    (0): Linear(in_features=64, out_features=1, bias=True)
  )
)
model capacity: 88899
model is checked for nodes shuffling
Train set (epoch 1): [12832/30000 (43%)]	Loss: 3.9542 (avg: 9.4537), other losses: ['1.0551', '1.5313']	Acc metric: 3184/12832 (24.81%)	 AttnAUC: ['84.28', '82.75']	 avg sec/iter: 0.0476
Train set (epoch 1): [25632/30000 (85%)]	Loss: 4.1626 (avg: 6.8568), other losses: ['1.1852', '1.3840']	Acc metric: 7870/25632 (30.70%)	 AttnAUC: ['89.11', '85.51']	 avg sec/iter: 0.0470
…
